web-app/BTP/prediction/network_model_not_normalized_200epochs_4neighbors.pth (torch, 196624 bytes, 75 tensors)

layer1.lstm.weight_ih_l0 f4 [24, 1]
0	0x3f114c17	0.5675673
1	0x3e42595d	0.18979402
2	0xbcd81428	-0.026376799
3	0x3c845aa4	0.016156502
4	0x3ea97fea	0.33105403
5	0xbcc27e3f	-0.02374184
6	0x3f0d0383	0.55083483
7	0x3ea8d9a1	0.32978538
8	0xbce2f823	-0.027706211
9	0xbe3f0cf6	-0.18657288
10	0x3d137b09	0.036006007
11	0x3f054afc	0.5206754
12	0xbf64d823	-0.893923
13	0x3ed090e4	0.40735543
14	0xbf374738	-0.71593046
15	0xbd0294df	-0.031880256
16	0xbd228ec6	-0.03968694
17	0x402adb13	2.6696212
18	0x3ee687c1	0.45025447
19	0x40546d0d	3.319156
20	0x3caf2ac4	0.021382697
21	0x3f81d576	1.0143268
22	0x3e027afa	0.12742224
23	0x3c35f6cb	0.011106203

layer1.lstm.weight_hh_l0 f4 [24, 6]
0	0xc08a0dc6	-4.3141813
1	0x3fbd63d1	1.4796087
2	0xbf8e9dc6	-1.1141899
3	0xc0321cc4	-2.7830057
4	0xbfe843ca	-1.8145688
5	0xbf9bf320	-1.2183571
6	0xc01fc44e	-2.4963565
7	0x3f8e8601	1.1134645
8	0xbf276eef	-0.65403646
9	0x3fdb702e	1.714361
10	0xbf9ff147	-1.2495507
11	0x3f8d304f	1.1030368
12	0x4164e0d5	14.304891
13	0xc0f62467	-7.6919436
14	0x414894c4	12.53632
15	0x41225abb	10.147151
16	0x41719b2e	15.100386
17	0xc1070adb	-8.44015
18	0x3ee69f21	0.4504328
19	0xc03a0618	-2.906622
20	0xbfc72d5c	-1.5560718
21	0x3fe9f7ac	1.8278708
22	0x405877ea	3.382319
23	0x3f13a335	0.5767091
24	0xc017ecf6	-2.373838
25	0xc08f8577	-4.485042
26	0xbffedc39	-1.9910957
27	0xbf8a1a1e	-1.078922
28	0xbeb3edc0	-0.35142326
29	0x40ce3d4b	6.444982
30	0xc10efc58	-8.936607
31	0x404fba23	3.245736
32	0xbfbacacb	-1.4593138
33	0xc04c20b7	-3.1894968
34	0xc0729f34	-3.790967
35	0xc009ec42	-2.155045
36	0xc0322f25	-2.7841275
37	0xbf037f36	-0.51365983
38	0xbf4220e9	-0.75831467
39	0xc073cf81	-3.80954
40	0xc0807bbb	-4.015104
41	0x3f88682d	1.0656792
42	0xbfa48c50	-1.285532
43	0x4024d720	2.5756302
44	0x3fec3266	1.845288
45	0x3f982520	1.188633
46	0x3da7c5f6	0.08192055
47	0xbf76a642	-0.9634744
48	0xbedb1c13	-0.42794856
49	0xc00b8ee7	-2.180597
50	0x40151d42	2.3299108
51	0x40010712	2.0160565
52	0x3e57687d	0.21035953
53	0x4045da84	3.0914621
54	0x3dd92a05	0.10603718
55	0xbfec40bf	-1.8457259
56	0x3ea755e3	0.32682714
57	0x3fe4ea3b	1.7883981
58	0x3fda43e9	1.7051975
59	0x3fb37f86	1.4023292
60	0xbfeb6ded	-1.8392922
61	0xbf14d3e9	-0.5813585
62	0xbd08ff87	-0.033446815
63	0xbe18ee1c	-0.14934582
64	0xc00635cc	-2.0970335
65	0x3f86ec5d	1.0540882
66	0xbfd28b21	-1.6448709
67	0xbe84bb8e	-0.25924343
68	0x3f4b525c	0.79422545
69	0xc01048ea	-2.2544503
70	0xc0085d7a	-2.1307054
71	0x3e3312ee	0.1748769
72	0x3f909302	1.1294863
73	0x3ea4d424	0.321931
74	0x3f2563b0	0.64605236
75	0x3f41569e	0.7552279
76	0x3fb184d1	1.3868657
77	0x3fed2860	1.8527946
78	0xbfaa18e9	-1.3288852
79	0xc00d3e11	-2.2069132
80	0xc028784e	-2.6323428
81	0xbf853a1e	-1.0408361
82	0xc00569eb	-2.0845897
83	0xbfad2e89	-1.3529826
84	0x403fb4c8	2.995409
85	0x3e314e40	0.17315006
86	0xbe286181	-0.16443445
87	0x40571f63	3.3612907
88	0x40390715	2.8910573
89	0x3ff26853	1.8938087
90	0xbe99eb6d	-0.30062428
91	0x3f4bf0ac	0.7966411
92	0xbf3bc6e8	-0.7335038
93	0xbf3731bf	-0.7156028
94	0xbf1b890b	-0.60755986
95	0x3dc569b9	0.096393056
96	0x4002b771	2.0424464
97	0xbf4689cf	-0.7755403
98	0x3f2b038a	0.66802275
99	0x3ff477c5	1.9099051
100	0xbe7a9c4b	-0.24473684
101	0xbfd290b8	-1.6450415
102	0xbf3cea3c	-0.73794913
103	0x3f393f9f	0.72362703
104	0xc01adc1a	-2.419684
105	0xbfe38440	-1.7774734
106	0xbfb92a67	-1.4466065
107	0xbfbd84ca	-1.4806149
108	0xc0c51459	-6.158734
109	0x4015d91f	2.341377
110	0xc03f702c	-2.9912214
111	0xc0178492	-2.3674664
112	0xc066d707	-3.6068742
113	0xbffe7d2c	-1.988195
114	0xbf2b390b	-0.66883916
115	0x3e8e4cbf	0.27792928
116	0x3ff2c85f	1.8967398
117	0xbe8d3694	-0.27580702
118	0xbf764aaf	-0.9620771
119	0xbd401f6c	-0.046904966
120	0xc10d8666	-8.845312
121	0x4093307a	4.5996675
122	0xbf01730d	-0.5056618
123	0xc0036697	-2.0531366
124	0xc0bcf91f	-5.9054103
125	0x40000b0b	2.000674
126	0xbf5decee	-0.8668965
127	0xbfe4e91d	-1.788364
128	0x3e56cb1b	0.20975916
129	0x3f3b1534	0.7307923
130	0x3f891a52	1.0711157
131	0xbe821b1e	-0.25411314
132	0xbed82807	-0.42218038
133	0xc0d78cd6	-6.735942
134	0xbf073b2c	-0.52824664
135	0x402018d4	2.5015154
136	0xbf060bd2	-0.52361786
137	0xc039d394	-2.9035387
138	0x3f13af52	0.5768939
139	0x4034eec9	2.8270743
140	0xc0273c8f	-2.6130712
141	0x40933d2a	4.6012163
142	0x409b094c	4.844885
143	0x3f1f9545	0.6233714

layer1.lstm.bias_ih_l0 f4 [24]
0	0x40320357	2.7814538
1	0x4070a8fd	3.7603142
2	0x3ff31ded	1.8993508
3	0x404e2345	3.2209027
4	0x3fb31390	1.3990345
5	0xbef2dbb4	-0.47433245
6	0x3fe4a132	1.7861693
7	0x3fca1290	1.5786915
8	0x3f40354a	0.7508131
9	0xbe122244	-0.14270884
10	0x400bece9	2.1863348
11	0x3f9f2e07	1.2435921
12	0xc09116c0	-4.534027
13	0x3fe238f9	1.7673637
14	0xc089aec7	-4.302585
15	0xbf93a268	-1.1533937
16	0xbf79268d	-0.9732445
17	0x4091ef91	4.560494
18	0x403cf447	2.9524095
19	0x40ae41d0	5.4455338
20	0xbfb8e0d2	-1.444361
21	0x3fd5f0d7	1.6714123
22	0x40904a8f	4.5091014
23	0x3fcd41e3	1.6035732

layer1.lstm.bias_hh_l0 f4 [24]
0	0x4037194f	2.8609197
1	0x40739690	3.8060646
2	0x3fa055fe	1.2526243
3	0x404a6a0b	3.1627223
4	0x3f4ae61c	0.7925737
5	0xbef71fc3	-0.4826642
6	0x3ff4a5c4	1.9113088
7	0x3fa7df4e	1.3115022
8	0x3f50a9b7	0.81508964
9	0x3e9af924	0.30268204
10	0x3fc693f7	1.5513905
11	0x3fa5888c	1.2932296
12	0xc09a1387	-4.8148837
13	0x4008de47	2.1385667
14	0xc097b54f	-4.7408824
15	0xbf6c49ff	-0.9230041
16	0xbf82c943	-1.021767
17	0x408ef9f8	4.468014
18	0x40430b43	3.0475624
19	0x40ae6bfc	5.4506817
20	0xbf8741a7	-1.056691
21	0x3fadb1c7	1.3569878
22	0x4085d450	4.182167
23	0x3fb02c01	1.3763429

layer1.lstm.weight_ih_l1 f4 [24, 6]
0	0xbf729e01	-0.94772345
1	0x3fdaa37d	1.7081143
2	0xbfad5fad	-1.3544823
3	0xbf2028d8	-0.6256232
4	0xbebbe386	-0.36697024
5	0x4052a366	3.291223
6	0xbec83b65	-0.39107814
7	0x3f9cb5df	1.2243003
8	0xc081bd8b	-4.0543876
9	0x3ebd35b9	0.3695505
10	0x3eb12e4e	0.3460564
11	0x408bd531	4.3697743
12	0xbfc3380a	-1.5251477
13	0x3faccb29	1.34995
14	0xbf6eb177	-0.9323954
15	0xbef616ba	-0.48064214
16	0xbf85091a	-1.0393403
17	0x41640325	14.250768
18	0x3e942370	0.28933287
19	0xbe3d9aca	-0.18516079
20	0xc14e6821	-12.900422
21	0x3e87b6b8	0.2650659
22	0xbf3e940a	-0.7444464
23	0x410a5b43	8.647281
24	0xbfd2e567	-1.6476258
25	0x3f6d295d	0.9264124
26	0xc0f02b82	-7.505311
27	0xc0215579	-2.5208418
28	0xbfd14ee9	-1.6352206
29	0x41216b7f	10.088744
30	0xbf420b13	-0.7579815
31	0x3f63ffa4	0.8906195
32	0xc14dc0ef	-12.859603
33	0x3cd64893	0.026157653
34	0xbfe91dcf	-1.8212222
35	0x41222cf5	10.135976
36	0x3e557334	0.20844728
37	0xbf06dbed	-0.5267933
38	0x3f9d4712	1.2287314
39	0x3f854e8e	1.0414598
40	0x3fc38802	1.5275881
41	0x4049197c	3.1421804
42	0x3dcc4fd7	0.09976166
43	0xbe778969	-0.24173512
44	0x3f488ba5	0.7833808
45	0x3fa45d02	1.2840884
46	0x3ffcf1f6	1.9761341
47	0x40819e70	4.0505905
48	0x3f017387	0.50566906
49	0xbe86013e	-0.26172823
50	0x400320c7	2.0488756
51	0xbf09187c	-0.53552985
52	0x3fea89b2	1.8323271
53	0x3fd2c038	1.646491
54	0xbe2bdc33	-0.16783218
55	0x3f15f7ca	0.5858122
56	0xc01ac495	-2.4182484
57	0x3f28036d	0.6563023
58	0x3f60d6b0	0.8782759
59	0x402d06a2	2.7035298
60	0x3e4c7711	0.19967295
61	0xbe075b27	-0.13218366
62	0xbfac2ad9	-1.3450576
63	0x3facdca5	1.3504835
64	0x3d94ccb5	0.07265607
65	0x4015973f	2.3373563
66	0xbeddc0d4	-0.4331118
67	0x3f08ca9f	0.53434175
68	0xc02064dc	-2.506156
69	0x3f306287	0.6890034
70	0x3fa5fe5d	1.296825
71	0x40aac044	5.33597
72	0xbf202315	-0.6255353
73	0x3fc95b93	1.5731071
74	0x4138d22e	11.551313
75	0xbf7e11e6	-0.9924606
76	0xbef59d78	-0.47971702
77	0x3fe1fd31	1.7655393
78	0x3e04ec24	0.12980705
79	0x3eea023d	0.45704833
80	0x412b4e0f	10.706557
81	0x3dd79575	0.105265535
82	0xbe366150	-0.1781056
83	0x408deec3	4.4353957
84	0x3fa6dbb8	1.3035803
85	0xbfd64b3d	-1.6741711
86	0xc11b9ce3	-9.725802
87	0x3fcd8b01	1.6058046
88	0x3fdbce9a	1.7172425
89	0xc11160be	-9.086119
90	0xbd9a2bbe	-0.075278744
91	0xbf203445	-0.62579757
92	0x41fb545e	31.416195
93	0x3e92117f	0.28528973
94	0x4055fdec	3.3436232
95	0x40a1eaa7	5.059894
96	0xbc84ee9b	-0.016227057
97	0xbd22548c	-0.03963141
98	0xc19a0251	-19.251131
99	0xbcfc82af	-0.030824034
100	0xbe417dee	-0.18895695
101	0x418b9147	17.445936
102	0x3e6fdb0f	0.23423408
103	0xbfc23cef	-1.5174845
104	0x41f3ed17	30.490767
105	0x3fa1d3f3	1.2642807
106	0x3ff58b49	1.9183131
107	0x40b7f20e	5.7482977
108	0xbf2c62a1	-0.67337996
109	0x3f2b72d0	0.66972065
110	0xbf7400e6	-0.9531387
111	0x3d36ec0c	0.044658706
112	0xbddf7f27	-0.10912924
113	0x40d906b5	6.7820687
114	0xbf270aad	-0.65250665
115	0xbf0f4cb1	-0.55976397
116	0xbeb634eb	-0.35587248
117	0xbf303e35	-0.6884492
118	0x3c836bd0	0.01604262
119	0x40eb343c	7.3501263
120	0xbf5cb633	-0.86215514
121	0x3f64129a	0.89090884
122	0xc096c4d7	-4.7115283
123	0x3f2e691e	0.68129146
124	0xbf93e12f	-1.1553096
125	0x4182b61f	16.338926
126	0x3e65a29d	0.22425313
127	0xbeeb8513	-0.45999965
128	0xc1b33dd9	-22.4052
129	0x3e14da32	0.1453636
130	0xbf43fdac	-0.7655895
131	0x41827911	16.309114
132	0xbf160f7d	-0.58617383
133	0x3f03b3aa	0.5144602
134	0xbff2d27e	-1.8970487
135	0xbf20148b	-0.62531346
136	0xbf8bd4a7	-1.0924271
137	0x417bbff1	15.734361
138	0x3eed55d2	0.46354538
139	0xbed28d14	-0.4112326
140	0xc1bdc4d6	-23.721111
141	0x3bb6d5dd	0.0055796937
142	0xbee42960	-0.44562817
143	0x417ce290	15.805313

layer1.lstm.weight_hh_l1 f4 [24, 6]
0	0x3f388c26	0.7208885
1	0x3ff6a903	1.9270328
2	0xbfd43ec8	-1.6581659
3	0x3faa4da6	1.3304946
4	0x4012dfab	2.2949016
5	0xbe81d6c3	-0.25359163
6	0x3f2bf895	0.6717618
7	0x3f619620	0.881197
8	0xbe724622	-0.23659566
9	0x3f91e15f	1.1396903
10	0x3e730bd8	0.23734987
11	0xbf55b4ba	-0.8347889
12	0xbecaf5d5	-0.3964068
13	0xbed05d33	-0.40696105
14	0xbfc2daa4	-1.5222974
15	0xbf509a55	-0.8148549
16	0x3f766e9b	0.9626252
17	0xbfca1b0b	-1.5789503
18	0x3f0082fc	0.50199866
19	0x4088862b	4.266378
20	0x3ece1320	0.40248966
21	0x3f8de227	1.1084641
22	0xbfa4e169	-1.288129
23	0x400415a6	2.0638213
24	0x3e5eb162	0.21747354
25	0x3f08618f	0.5327386
26	0xbeae4295	-0.34035173
27	0x3fe609a4	1.7971692
28	0xbf1bfbc7	-0.60931057
29	0x3f765779	0.9622722
30	0x3f90b30e	1.1304643
31	0x402a8420	2.6643143
32	0xc05828ba	-3.3774858
33	0x3f2a6a85	0.66568786
34	0x3fb36fa2	1.4018443
35	0x3f5058a5	0.8138526
36	0xc053231d	-3.2990181
37	0xc080b606	-4.0222197
38	0x3fc42e3f	1.5326613
39	0xbefd7977	-0.49506733
40	0x3fd3ea3a	1.6555855
41	0xbfb3596f	-1.4011668
42	0x3ea651e8	0.32484365
43	0xbd8c3ea7	-0.068478875
44	0x3faf82c8	1.3711786
45	0xbf3c62c4	-0.73588204
46	0x3f9e047b	1.2345117
47	0xc016ae45	-2.3543866
48	0x3e0d5e69	0.13805546
49	0x400d0a36	2.2037482
50	0x3f3ed53d	0.74544126
51	0xbf4f2bc2	-0.80926144
52	0x3fc1c533	1.5138305
53	0xbff235ca	-1.8922665
54	0xbebff71a	-0.3749321
55	0x3e59f410	0.21284509
56	0xbcfe31b8	-0.031029567
57	0xc03584c5	-2.8362286
58	0x402cf126	2.7022185
59	0xc0628127	-3.5391328
60	0x3d537afb	0.051630955
61	0x3e7cc366	0.24683914
62	0x3fd3ed26	1.6556747
63	0xc05e3ded	-3.4725296
64	0x3f6dd4ae	0.9290265
65	0xc06de740	-3.7172394
66	0xbf5ee390	-0.8706598
67	0xbf397399	-0.72442013
68	0x3e9ba3c9	0.30398396
69	0xc0a38f55	-5.1112466
70	0x3f51b84d	0.81921846
71	0xc0810fb6	-4.033168
72	0x4016ecf5	2.3582127
73	0x4030979c	2.7592535
74	0xbfdb7a23	-1.7146648
75	0xbf64b91e	-0.89344966
76	0x3ed7031b	0.41994557
77	0xbf9ecc84	-1.2406163
78	0x3f3fdee9	0.7494951
79	0x3ec22a08	0.37922692
80	0xbf9c8b4f	-1.2230014
81	0xbea0c40d	-0.31399575
82	0x3f065867	0.5247864
83	0x3edd4901	0.4321976
84	0xbfc6f3fb	-1.5543207
85	0xbf79df36	-0.9760622
86	0x3fe75886	1.807389
87	0x3edc8da3	0.4307681
88	0xc0037968	-2.054285
89	0x3f26428d	0.649453
90	0xbfc616b3	-1.5475677
91	0xbf55e21d	-0.83548146
92	0x3fa8d6c5	1.3190542
93	0x3d4e5622	0.05037511
94	0xbf449c09	-0.7680059
95	0x3f25c1ef	0.64749044
96	0xbe9f8558	-0.3115642
97	0x3fc08c15	1.504275
98	0xbef63c3d	-0.48092833
99	0xbf1bcf3f	-0.6086311
100	0x3eabf3d6	0.3358447
101	0xbeaabc47	-0.3334677
102	0xbfbf63e6	-1.4952362
103	0xbfc29a44	-1.5203328
104	0x3fb838f6	1.4392383
105	0x3ded906b	0.11599811
106	0xbf979203	-1.1841434
107	0x3f648821	0.89270216
108	0xbf90b3a4	-1.1304822
109	0x3fbc6b15	1.4720179
110	0x3f81e894	1.0149102
111	0xbf7c8512	-0.9864055
112	0x40143c58	2.316183
113	0xc031c9cc	-2.7779417
114	0xbeafdcdc	-0.3434819
115	0x3f81d5c4	1.0143361
116	0xbefdd99d	-0.49580088
117	0x3f14aad4	0.58073163
118	0x3fa10c5a	1.2581894
119	0xbfc70474	-1.5548234
120	0x3e1a0292	0.15040043
121	0x400307b9	2.0473464
122	0xbfe6e0e3	-1.803738
123	0xbf61790a	-0.88075316
124	0x3f80c5d1	1.0060369
125	0xbf6960df	-0.9116344
126	0xbfcffa75	-1.6248308
127	0x4036d8c6	2.8569808
128	0x3f24518a	0.6418692
129	0xc003f05f	-2.061546
130	0x3fb77cc4	1.433495
131	0xbf9be92b	-1.2180532
132	0xbe9becc7	-0.30454084
133	0x3f9926dc	1.1964984
134	0x3eedbdff	0.46434018
135	0x3f470658	0.77744055
136	0xbf37fa38	-0.7186618
137	0xbe197680	-0.1498661
138	0xbe89f4f7	-0.26944706
139	0x404df7ea	3.2182565
140	0xbe863549	-0.26212528
141	0xbfb60f3a	-1.4223397
142	0xbd5d77cf	-0.054069337
143	0xbf2579ab	-0.64638776

layer1.lstm.bias_ih_l1 f4 [24]
0	0xbe816e1d	-0.25279322
1	0xc000965d	-2.0091774
2	0x3e39865f	0.18117665
3	0xbf957a9d	-1.1678044
4	0x3ed85267	0.42250368
5	0x3fb6aa0d	1.4270645
6	0xbf77b510	-0.96760654
7	0xbed51b0b	-0.41622195
8	0x3cb9c35e	0.022676166
9	0xbfa16394	-1.2608514
10	0xbec9ce1c	-0.3941506
11	0xbc8f6be5	-0.017507503
12	0x402f1aa8	2.736002
13	0x3fe6cdaf	1.803152
14	0xc0368af1	-2.8522303
15	0xbe0975e4	-0.13423878
16	0xbeac2a39	-0.33625963
17	0xbf51a36d	-0.8188999
18	0xbe96d997	-0.29462883
19	0xbe8cb702	-0.27483374
20	0x3f141c63	0.57855815
21	0xbf883a00	-1.06427
22	0x3f7bc171	0.98342043
23	0xbf780a95	-0.96891147

layer1.lstm.bias_hh_l1 f4 [24]
0	0xbf197bb2	-0.5995437
1	0xbffe5441	-1.9869462
2	0x3eeb6ba9	0.45980576
3	0xbf6fa7ea	-0.9361559
4	0x3e70dd98	0.23522031
5	0x3f75a209	0.9595037
6	0xbf946d66	-1.1595886
7	0xbf2bac90	-0.67060184
8	0x3d0293eb	0.031879347
9	0xbfb01d0a	-1.3758862
10	0xbf24b368	-0.6433625
11	0xbdae7481	-0.08518315
12	0x402e37cd	2.7221558
13	0x3fedc3bd	1.857536
14	0xc04bad05	-3.1824353
15	0xbe9539d9	-0.29145697
16	0xbecf1072	-0.40442234
17	0xbec4ffd6	-0.38476437
18	0xbf36b72d	-0.71373254
19	0x3d233104	0.039841667
20	0x3f2b06a4	0.6680701
21	0xbee9b2e0	-0.45644283
22	0x3e623254	0.22089511
23	0xbfa00eba	-1.2504494

layer1.lstm.weight_ih_l2 f4 [24, 6]
0	0xbedc8f6e	-0.43078178
1	0xbecead91	-0.40366796
2	0x3eaab4d1	0.33341077
3	0xc09ad32c	-4.838278
4	0x3f855b06	1.0418403
5	0xc0982c9e	-4.7554464
6	0x40376962	2.865807
7	0x40ace1f3	5.4025817
8	0x3e7c9914	0.2466777
9	0xbff4fae9	-1.9139072
10	0xbf134bed	-0.5753773
11	0xc0135a48	-2.3023853
12	0xbef85b49	-0.48507145
13	0x401e807a	2.4765916
14	0xbf2b5fc2	-0.6694299
15	0xbfb9f8a6	-1.4529006
16	0x3efed4cd	0.4977173
17	0xc045a389	-3.0881064
18	0xbf26fdec	-0.65231204
19	0x401bd534	2.434888
20	0x3ed4f66e	0.4159426
21	0xc0bc65f8	-5.8874474
22	0xbf74c7d8	-0.9561744
23	0xc099bc50	-4.8042374
24	0xbf7e1e1d	-0.992647
25	0x40076376	2.1154456
26	0x3cd8ad34	0.026449777
27	0xc046c389	-3.1056845
28	0x3fe6e665	1.8039061
29	0xc083b47f	-4.115783
30	0xbf8eadc3	-1.1146778
31	0x3eb2bbdd	0.34908953
32	0x3f41a8eb	0.75648373
33	0xc083ce05	-4.118899
34	0x4000919a	2.0088868
35	0xc0851579	-4.158871
36	0x3f9d25f6	1.227721
37	0x40220500	2.5315552
38	0x3e87e342	0.2654057
39	0x3e29c825	0.16580255
40	0xbed4ad75	-0.41538587
41	0xbcfab7c5	-0.030605206
42	0x401ad612	2.4193158
43	0x40cbd611	6.369881
44	0xbead5d42	-0.33860213
45	0xbcf0927e	-0.029366728
46	0xbe9dd040	-0.30822945
47	0x3e4deac9	0.20109095
48	0x3e2f28f4	0.17105466
49	0x402ba2d8	2.6818142
50	0xbf872861	-1.0559198
51	0x4012ca5b	2.2936008
52	0xbfb06d03	-1.3783268
53	0x4035f579	2.8431075
54	0x3f550194	0.83205533
55	0x4018643a	2.3811173
56	0x3dbf8fe6	0.09353618
57	0xbfb1de56	-1.3895977
58	0x3fba01dd	1.4531819
59	0xbf550b11	-0.8322001
60	0xbced3f56	-0.028960865
61	0x3fd2c0c5	1.6465079
62	0xbfbef63e	-1.4918897
63	0x403f1372	2.9855618
64	0x3fd33ad2	1.6502326
65	0x3fcedbf4	1.6160874
66	0x3fb4cdd6	1.4125316
67	0x40a401f9	5.125241
68	0xbea4b842	-0.32171828
69	0x3f80cd91	1.0062734
70	0xbea55d6f	-0.32297847
71	0x3f347cc3	0.7050287
72	0x3f835147	1.0259179
73	0x3f1ccf70	0.61254025
74	0xbed6ba94	-0.41939223
75	0xc0116751	-2.271931
76	0x4049361a	3.143927
77	0xc0268eae	-2.6024585
78	0x3f9872c3	1.1910022
79	0x4011e975	2.279874
80	0xbf464211	-0.7744456
81	0xc00c865b	-2.1957004
82	0x40223429	2.5344336
83	0xc05c250b	-3.439761
84	0xbfebdc2b	-1.8426565
85	0xc0ae22e1	-5.4417577
86	0x3ecf2a75	0.4046208
87	0x3e04b3c8	0.12959206
88	0xbf7aa570	-0.9790869
89	0x3ea66e6c	0.3250612
90	0xbf459e0b	-0.7719428
91	0xc0430177	-3.0469644
92	0x3f55c2ed	0.8350056
93	0x405499c6	3.3218856
94	0xc03e3af9	-2.9723494
95	0x402d87b7	2.7114084
96	0xc0197f05	-2.3983777
97	0xc0c610db	-6.1895576
98	0x3ee6c6dd	0.45073596
99	0xbf0316f1	-0.5120688
100	0x3dfc10ac	0.123078674
101	0xbe8ffc96	-0.28122395
102	0xc001bbcd	-2.0270875
103	0xc08f401e	-4.476577
104	0x3ebfef2f	0.3748717
105	0x3e8886b6	0.26665276
106	0xbe875e3f	-0.26439092
107	0x3e5b6e39	0.21428765
108	0x3e77ce50	0.24199796
109	0xbea0797e	-0.3134269
110	0x3f0ac86e	0.5421208
111	0xc0891212	-4.283456
112	0x3fb405bb	1.4064249
113	0xc0963ca0	-4.6949005
114	0x3d2c2fbf	0.04203772
115	0x4074b494	3.8235216
116	0xbd923f63	-0.07140996
117	0xc0281e90	-2.6268654
118	0x3fa96eb9	1.3236915
119	0xc0615900	-3.5210571
120	0x3f02bf8f	0.51073545
121	0x400e88c4	2.2270975
122	0xbeaa7a0b	-0.33296236
123	0xbf47c238	-0.7803073
124	0x3f43a74b	0.76427144
125	0xbfdd22bc	-1.7276225
126	0x404f4968	3.2388554
127	0x405557e9	3.3334906
128	0x3ee5157d	0.44742957
129	0xc03c5d59	-2.9431975
130	0x3dd3087b	0.10304352
131	0xc003d3f6	-2.059812
132	0xbf333a7e	-0.70011127
133	0x4013ba84	2.308259
134	0xbf92612f	-1.1435908
135	0xc01b619a	-2.4278321
136	0x408019dd	4.003157
137	0xc01f10e0	-2.485405
138	0xbef22ee7	-0.4730141
139	0x3f19e8b6	0.60120714
140	0xbd999b90	-0.07500374
141	0xbfb458f2	-1.4089644
142	0x4036658d	2.8499482
143	0xbfe57757	-1.7927045

layer1.lstm.weight_hh_l2 f4 [24, 6]
0	0xc02e155a	-2.7200532
1	0xc018c2e1	-2.3868945
2	0x3faee31e	1.3663061
3	0x400f5fcb	2.2402217
4	0x4019b5d8	2.4017239
5	0x3fc3cc79	1.5296775
6	0xbf19302a	-0.5983912
7	0xc019e7b4	-2.404767
8	0xbf3641bf	-0.7119407
9	0x3f8ab4a0	1.0836372
10	0xbfafb3e3	-1.3726772
11	0xbf08b453	-0.5340015
12	0x3faef238	1.3667669
13	0x401ddb97	2.4665277
14	0x3f8cf532	1.1012328
15	0xbfbccdcd	-1.4750305
16	0xbf6db6cb	-0.92857045
17	0xbc3ae57b	-0.0114072515
18	0xbf032209	-0.5122381
19	0xc0049679	-2.0716841
20	0x3fe28226	1.7695968
21	0x40198b49	2.3991263
22	0x3fe8eee4	1.8197904
23	0x3ff19ca7	1.8875932
24	0x402a94ee	2.66534
25	0x3ff216be	1.891319
26	0x3f15ee07	0.58566326
27	0xbf6e32f9	-0.9304653
28	0x3fbe4ede	1.4867818
29	0x3f99810c	1.1992507
30	0x4073b22a	3.8077493
31	0x40323b4a	2.7848687
32	0xbd9eeff2	-0.0776061
33	0xc08708f0	-4.219841
34	0x3f84b7b4	1.0368562
35	0x3d337e14	0.04382141
36	0x3ff56b2f	1.9173335
37	0x4001bc1b	2.027106
38	0xbf9c6a49	-1.2219936
39	0xbff6e972	-1.9289992
40	0xbfd72c1d	-1.6810337
41	0x3eb2bf3f	0.34911534
42	0x40114f62	2.2704701
43	0x3f9b930a	1.2154248
44	0xbe419726	-0.18905315
45	0xbf364416	-0.7119764
46	0xbf4abee0	-0.791975
47	0x3f355cb3	0.7084457
48	0xbeb8bcd8	-0.36081576
49	0x3d443edf	0.04791152
50	0xbf84b15c	-1.0366626
51	0x3e9c0ba4	0.3047763
52	0xbf560c57	-0.8361258
53	0xbeb903c4	-0.36135685
54	0x401d1c9c	2.4548712
55	0x3fbc5144	1.47123
56	0x3f25e63b	0.6480443
57	0xbf0ec39c	-0.55767226
58	0x3e3d41e5	0.18482168
59	0x3fa694e4	1.3014188
60	0xbfb088c5	-1.3791739
61	0xbe2d7570	-0.1693933
62	0xbe6c9779	-0.23104657
63	0x3f6a7e53	0.91599005
64	0xbf6cad76	-0.9245218
65	0x3f2026f1	0.6255942
66	0xbf68ef82	-0.9099046
67	0x3f018146	0.5058788
68	0xbe6b5a4c	-0.22983664
69	0x3fb3a5db	1.403499
70	0xbfa8cda1	-1.3187753
71	0xbd6e955c	-0.05824791
72	0xbf8a5d81	-1.0809785
73	0xbe72ab25	-0.23698099
74	0x3fb90606	1.4454963
75	0x3eab9285	0.33510223
76	0x3eb6b841	0.3568745
77	0x3fa81c2c	1.3133597
78	0x3f778cf2	0.9669944
79	0x3fb2e1b0	1.3975124
80	0xbf644b8e	-0.8917779
81	0xbf8fe969	-1.1243106
82	0xbf2d81fc	-0.67776465
83	0xbfc51aae	-1.5398767
84	0xbf7141e1	-0.9424115
85	0xbefd1e9b	-0.49437413
86	0xbf866481	-1.0499421
87	0x3f232e99	0.6374298
88	0x3e68f672	0.22750261
89	0x3df2d217	0.11856478
90	0xbea8e526	-0.32987326
91	0xbdf5ff44	-0.12011579
92	0xbf601f03	-0.8754732
93	0x3f2f06e0	0.68369865
94	0x3f0e2663	0.55527323
95	0xbf44151f	-0.7659473
96	0x3ef15c6e	0.4714083
97	0xbefde47b	-0.4958838
98	0x3e138f97	0.14410244
99	0xbf11a784	-0.56896234
100	0x3e22d076	0.15899834
101	0x3f30a781	0.6900559
102	0xbf96bcfd	-1.1776425
103	0xbeeaf45a	-0.4588955
104	0xbec6ac82	-0.38803488
105	0x3ee7200a	0.4514163
106	0xbec16a35	-0.37776342
107	0x3da8cbe0	0.08242011
108	0x3fec5a8e	1.8465135
109	0x3f82ed9b	1.0228761
110	0xbf802a19	-1.0012847
111	0xc0150971	-2.3287013
112	0xbf2523d0	-0.6450777
113	0xbf30d3b5	-0.6907304
114	0x40196c05	2.397218
115	0xbdc4c092	-0.09607042
116	0x3ed771c3	0.4207898
117	0xc003efad	-2.0615036
118	0xbdf5c4da	-0.12000437
119	0x3fb00f6c	1.3754706
120	0x3ff1a35a	1.8877976
121	0x3ff7b268	1.935132
122	0xbd560c3a	-0.052257754
123	0xbff85c47	-1.9403161
124	0x3f3cc03b	0.7373082
125	0x3f00d51c	0.5032518
126	0xbf2c55d3	-0.6731846
127	0xbe8601fc	-0.2617339
128	0xc00ec2ed	-2.2306473
129	0x3f0038d3	0.50086707
130	0xc023cdcc	-2.5594358
131	0xbfc197ac	-1.5124412
132	0x40250a63	2.578759
133	0x3fe8f48f	1.8199633
134	0xbf5b41e7	-0.85647434
135	0xbff21e31	-1.8915464
136	0x3cfdd7f8	0.030986771
137	0xbe3981b2	-0.18115881
138	0x3ff7407b	1.9316553
139	0x3fecd3f3	1.8502182
140	0xbfc39f92	-1.5283072
141	0xc0295bd1	-2.646229
142	0xbeadc235	-0.3393723
143	0xbf9623df	-1.1729697

layer1.lstm.bias_ih_l2 f4 [24]
0	0xbf598be5	-0.8497909
1	0xbff49177	-1.9106892
2	0xbf9153d4	-1.1353707
3	0xbf444a05	-0.76675445
4	0xbfa07513	-1.2535728
5	0xbf8d1da9	-1.1024677
6	0xbf1e5083	-0.618416
7	0xc000ccee	-2.012508
8	0xbfc20ce8	-1.5160189
9	0xbf419850	-0.75623035
10	0xc019219a	-2.3926759
11	0xbf9c7d9d	-1.2225834
12	0xbf393182	-0.7234117
13	0x3ed37912	0.41303307
14	0x3f5f74bb	0.8728749
15	0x3e4de3e5	0.20106466
16	0xbf073be4	-0.5282576
17	0xbbe137ce	-0.0068731075
18	0x3f6b8155	0.9199422
19	0xbf8b6640	-1.0890579
20	0x3ec7e092	0.3903852
21	0xbf54bf8c	-0.8310478
22	0x3f88b9f1	1.0681745
23	0x3f32137f	0.69561

layer1.lstm.bias_hh_l2 f4 [24]
0	0xbebf8a66	-0.37410277
1	0xc0168698	-2.351965
2	0xbf9879ab	-1.191213
3	0xbf8cc488	-1.0997477
4	0xbfbe6fd7	-1.4877881
5	0xbf69df6a	-0.9135653
6	0xbf3d90ed	-0.74049264
7	0xc0190460	-2.390892
8	0xbff8b372	-1.9429762
9	0xbf50b231	-0.815219
10	0xc01ada8e	-2.4195895
11	0xbfb8cf36	-1.4438236
12	0xbe73f8d8	-0.23825395
13	0x3f83702e	1.026861
14	0x3ee7cfd4	0.45275748
15	0x3f07e92c	0.5309017
16	0xbf32c910	-0.6983805
17	0xbe4812f4	-0.1953848
18	0x3eb4f1ca	0.3534072
19	0xbea6cd39	-0.32578447
20	0x3ec303eb	0.38088927
21	0xbf8201c6	-1.0156791
22	0x3f9b31a5	1.2124525
23	0x3ecc00d7	0.3984439

layer1.lstm.weight_ih_l3 f4 [24, 6]
0	0x3ee9fea2	0.45702082
1	0x3fff0faf	1.9926661
2	0xc00a0d4e	-2.157062
3	0xbf560592	-0.8360225
4	0xbfa6c541	-1.3028947
5	0xbff8caaa	-1.9436848
6	0xbf0a47f2	-0.5401603
7	0xbe7e50cf	-0.24835514
8	0xbf38437e	-0.71977985
9	0xbef25e97	-0.4733779
10	0xbf4039c7	-0.7508816
11	0xbf27f513	-0.6560833
12	0x400e2519	2.2210143
13	0x40342285	2.814607
14	0xbeb85403	-0.36001596
15	0xc06c541d	-3.6926339
16	0xbf861aa6	-1.0476882
17	0xbfa5b596	-1.2946041
18	0x4008eebd	2.1395714
19	0x403325fd	2.7991936
20	0xbf8037d4	-1.0017037
21	0xc04fff7d	-3.2499688
22	0xbfc5d4e8	-1.5455599
23	0xbfac0017	-1.3437527
24	0x4008b363	2.135949
25	0x40348bb2	2.8210263
26	0xbe98e984	-0.29865658
27	0xc016d423	-2.3566978
28	0xbfae72d0	-1.3628788
29	0xbeb5ecd5	-0.3553225
30	0x406a58a1	3.6616595
31	0x404a9a0b	3.165652
32	0xbf2ad21c	-0.6672685
33	0xc0780d77	-3.8758218
34	0x3f2653de	0.6497172
35	0xbe099ffd	-0.13439937
36	0xbf10841d	-0.5645159
37	0x3f2a66e9	0.6656328
38	0x3eee05a2	0.46488672
39	0x3eeedab2	0.46651226
40	0xbce8c184	-0.028412588
41	0xbf12d368	-0.5735383
42	0xbf8bb375	-1.0914141
43	0xbf5c90ae	-0.86158264
44	0x400b789c	2.1792364
45	0x3fd1cc6c	1.639051
46	0x3f9c26c1	1.2199327
47	0x3f1f88b9	0.62318
48	0x3e90fcd2	0.28317887
49	0x3fa2391e	1.2673681
50	0xc045dedd	-3.0917275
51	0xbf3da229	-0.7407556
52	0xc04ca9e3	-3.197869
53	0xbf92b387	-1.1461037
54	0xc08cd5a0	-4.4010773
55	0xbe83f606	-0.25773638
56	0x3f6c368a	0.9227072
57	0x3fe75e0d	1.8075577
58	0xc03e7186	-2.975679
59	0x3eb19a07	0.34687826
60	0xbd597b4c	-0.0530961
61	0xbfa57b90	-1.2928333
62	0x3d5488b1	0.05188817
63	0xbf4ae7cd	-0.7925995
64	0xc02aeefa	-2.670836
65	0xbe087e01	-0.13329317
66	0x3ee783e0	0.452178
67	0xbec56248	-0.38551545
68	0x3dc92888	0.09822184
69	0x3ff42514	1.9073815
70	0xbec23a0f	-0.3793492
71	0x3ee19de5	0.44065776
72	0x408d7491	4.4204793
73	0x402c5686	2.692781
74	0xbfd25090	-1.6430836
75	0xc0707be4	-3.7575617
76	0xbf88653e	-1.0655897
77	0xbfa6b88c	-1.3025069
78	0x4019174b	2.3920467
79	0xbefab063	-0.48962697
80	0xbff4929a	-1.9107239
81	0xc048e0b5	-3.138715
82	0xbe8c86fa	-0.2744673
83	0xbfe7f0c7	-1.8120354
84	0xbf7f796e	-0.9979466
85	0xbfc6fc96	-1.5545833
86	0x4010ab76	2.2604651
87	0x3fcb54b1	1.5885221
88	0x3f518899	0.81849056
89	0x403317fe	2.7983394
90	0x3e02782a	0.12741151
91	0x3fa07732	1.2536376
92	0xc04bff32	-3.187451
93	0xbf187d9f	-0.5956668
94	0xc00df14b	-2.2178524
95	0xc06fc07f	-3.746124
96	0xc04e4456	-3.222921
97	0xc04bfb7a	-3.187224
98	0x3fa202ee	1.2657144
99	0x4067a389	3.6193564
100	0x40002389	2.002169
101	0x3fdf6346	1.7452171
102	0x3d8b5383	0.06803038
103	0xbf7920a8	-0.97315454
104	0x40232692	2.5492291
105	0x3e199f79	0.1500224
106	0x40691574	3.6419344
107	0x3fac4a33	1.3460144
108	0xb88a37e2	-6.590762e-05
109	0x3f13a572	0.57674325
110	0xbe61d3be	-0.2205343
111	0xbd83a35a	-0.06427641
112	0xbf10e96c	-0.56606174
113	0xbba772bb	-0.0051101125
114	0xbf514463	-0.81744975
115	0xbfb9014f	-1.4453524
116	0xbef48c45	-0.47763267
117	0x3f423293	0.7585842
118	0xbf26f5ab	-0.6521861
119	0xbf5db3a4	-0.86602235
120	0x3fec46a0	1.8459053
121	0x40086f68	2.1317997
122	0xbfd4c7cf	-1.6623477
123	0xbfc3ea3c	-1.5305858
124	0xc039dc71	-2.9040797
125	0xbf3e4bc6	-0.7433437
126	0x3fca6f3d	1.5815197
127	0x3fe7481b	1.806888
128	0xbf973927	-1.1814317
129	0xbfea95e4	-1.8326993
130	0xc013fbb5	-2.312238
131	0xbf3d3d53	-0.739217
132	0x3f4b0247	0.7930035
133	0x3fc9b4d3	1.5758308
134	0xbfde2bd7	-1.7357129
135	0xbf473b5f	-0.7782497
136	0xc03b98ee	-2.931209
137	0xbf82c641	-1.0216752
138	0x3f8f7ad4	1.1209359
139	0x3fc40ba4	1.5316052
140	0xbf0a4980	-0.540184
141	0xbfa62eef	-1.2983073
142	0xbedb4329	-0.42824677
143	0xbe786ed4	-0.24261028

layer1.lstm.weight_hh_l3 f4 [24, 6]
0	0xbe9414a0	-0.28921986
1	0xc01e6332	-2.4748044
2	0xc071ab2d	-3.7760727
3	0x405f5f8c	3.4902067
4	0xbf121030	-0.5705595
5	0xc02331c1	-2.5499117
6	0xbe56590e	-0.20932409
7	0xbf4137b8	-0.75475645
8	0xbfc048cf	-1.502222
9	0x400695c8	2.102892
10	0xbf8f5195	-1.1196772
11	0xbf5ba02d	-0.85791284
12	0x4008cd0c	2.137515
13	0xbfe0ab8d	-1.7552353
14	0xbfe69b5e	-1.8016164
15	0x3fadb3e5	1.3570524
16	0xc024f364	-2.5773554
17	0x3f3125ed	0.69198495
18	0x3eb6441c	0.35598838
19	0xbfa4940d	-1.2857682
20	0xc0864e07	-4.197025
21	0x4040aa38	3.0103893
22	0xbf877922	-1.0583842
23	0xbf530c51	-0.8244067
24	0xbf82a8ed	-1.0207802
25	0xbfcabf2a	-1.5839589
26	0x3ed602d3	0.4179903
27	0x3e8d9ef9	0.2766035
28	0x3f906cfd	1.128326
29	0xbf482161	-0.7817593
30	0x4014a2da	2.3224397
31	0xbf65b476	-0.89728487
32	0xc0816d95	-4.0446267
33	0x40024504	2.0354624
34	0xbfbbb72a	-1.4665272
35	0xbd49ab29	-0.049235497
36	0x3dfff869	0.12498552
37	0x3ecd2229	0.40065125
38	0x3ed2b8d6	0.41156644
39	0xbf424497	-0.7588591
40	0x3ee19c77	0.44064686
41	0x3f30dfb3	0.6909134
42	0x3f5af178	0.855247
43	0xbf4ba5be	-0.7954978
44	0x3ef8a942	0.48566633
45	0xbf7e4f66	-0.993399
46	0x3f0fd20e	0.56179893
47	0x3fafaf19	1.372531
48	0xbfe96db3	-1.8236603
49	0xc014df4c	-2.326129
50	0x3ee97f49	0.45604923
51	0xbfa325a6	-1.2745864
52	0x3e26ce34	0.16289598
53	0x3dbdf52e	0.0927528
54	0x3f5cc922	0.86244404
55	0xbe248f3d	-0.16070266
56	0x40074365	2.1134884
57	0xbff2315d	-1.8921314
58	0x3f8c2b9d	1.095081
59	0x3fe81d83	1.8134006
60	0x3f376fb3	0.71654814
61	0x3fa88383	1.3165134
62	0x3efabdde	0.48972982
63	0xc003127a	-2.0480027
64	0xbe1f8bdf	-0.155807
65	0x3fc7aa7d	1.5598904
66	0xbf6fb122	-0.9362966
67	0xbfc4698f	-1.5344714
68	0xbc8e469c	-0.017367654
69	0xbecdf017	-0.40222237
70	0x3ed2e694	0.41191542
71	0x3fa6e685	1.3039099
72	0xbb7a97ab	-0.0038237374
73	0x3f876982	1.0579073
74	0xbefb7832	-0.4911514
75	0x3e364199	0.17798461
76	0xbf265038	-0.64966154
77	0x3c47e179	0.012199753
78	0x3e9d2ccc	0.3069824
79	0x3ff9d59e	1.9518316
80	0xc01f33a3	-2.4875267
81	0x3fc969df	1.5735434
82	0xc0302a52	-2.752583
83	0xbf4ca89d	-0.79944783
84	0x3eda90ae	0.42688507
85	0x3eada96e	0.33918327
86	0x3e157107	0.14593898
87	0xbeb1457b	-0.34623322
88	0x3e9a411e	0.30127805
89	0xbf3bb2b4	-0.73319554
90	0xbe6acb7d	-0.22929187
91	0xbe7c9f45	-0.24670132
92	0xbf030616	-0.5118116
93	0xbebe651e	-0.3718652
94	0x3e5756f3	0.21029262
95	0x3d9744e2	0.07386185
96	0x3ef288b4	0.4736992
97	0xbddb4130	-0.10705793
98	0x3efc6878	0.49298453
99	0xbdfbc2a2	-0.12292983
100	0x3f28e41b	0.6597306
101	0x3ed90e9d	0.42393962
102	0x3f3ab67a	0.7293469
103	0x3f5b116b	0.8557345
104	0x3f2ab120	0.6667652
105	0xbedc0500	-0.42972565
106	0xbd9c090c	-0.07618913
107	0xbd32c5b2	-0.04364557
108	0xbfb64689	-1.4240276
109	0xbf048f94	-0.5178158
110	0xbf393732	-0.72349846
111	0x3e627323	0.22114234
112	0x3fea9a6c	1.8328376
113	0xbf47137d	-0.7776411
114	0xbf6306d1	-0.88682276
115	0xbff78e96	-1.9340389
116	0x3f566b5c	0.8375757
117	0x3da7f799	0.082015224
118	0x3fa761fa	1.3076775
119	0x3e29b4a2	0.16572812
120	0xbd766c2c	-0.060161754
121	0xc0145256	-2.3175254
122	0x3ebc3bda	0.36764413
123	0xbf43586c	-0.76306796
124	0xbfa4a9d8	-1.2864332
125	0x3ec0b62b	0.37638983
126	0xbead23c1	-0.3381634
127	0xbef7faf8	-0.4843366
128	0xc038f668	-2.8900394
129	0x3fbeb503	1.489899
130	0xbf3aa534	-0.7290833
131	0xbf922c0e	-1.1419694
132	0xbf45de03	-0.7729189
133	0xbf63b9c8	-0.88955355
134	0xbefaa998	-0.48957515
135	0xbea5e998	-0.3240478
136	0x3f57386a	0.84070456
137	0xbf80b672	-1.0055678
138	0x4009f5cf	2.155628
139	0xbed7492e	-0.4204802
140	0xc02b90ae	-2.6807055
141	0x402c9fa2	2.6972432
142	0xbf06b492	-0.5261928
143	0xbfb7d6b5	-1.4362398

layer1.lstm.bias_ih_l3 f4 [24]
0	0xbe9a45f2	-0.3013149
1	0xbea6fdca	-0.326155
2	0x3e215878	0.15756404
3	0xbdf1fc30	-0.11815679
4	0xbd98f58b	-0.074687086
5	0xbf75c559	-0.96004254
6	0xbfcf7656	-1.6207988
7	0xbdf99351	-0.121863015
8	0x3cd81348	0.026376382
9	0xc02b1a27	-2.6734712
10	0xbfc4d381	-1.5377046
11	0xc01fc1ec	-2.496211
12	0x3e4d4ed3	0.200496
13	0x3bf319c6	0.007418844
14	0xbed0236d	-0.40652028
15	0x3f120c8d	0.570504
16	0xbe949e06	-0.29026812
17	0x3df9fcb9	0.12206406
18	0xbf74c92d	-0.9561947
19	0xbfb28a5a	-1.3948472
20	0xbfed0ead	-1.8520104
21	0xbfd4b541	-1.6617814
22	0xbf8d1945	-1.1023337
23	0xbf7ef267	-0.99588627

layer1.lstm.bias_hh_l3 f4 [24]
0	0xbe74a261	-0.23890068
1	0x3cebcf9f	0.028785525
2	0x3f22acb6	0.63544786
3	0xbe77f468	-0.24214327
4	0xbe8b01f7	-0.27149937
5	0xbf76e947	-0.964497
6	0xc00d80e5	-2.210992
7	0x3f2ad0e0	0.6672497
8	0x3e80603a	0.25073415
9	0xc0272d1e	-2.6121287
10	0xbfd28774	-1.6447587
11	0xc0428d6a	-3.0398812
12	0x3c16f014	0.0092125125
13	0x3bdc75a3	0.0067278906
14	0xbf44fd06	-0.76948583
15	0xbd9292a8	-0.07156879
16	0xbe96c394	-0.2944609
17	0xbc2bb55c	-0.010480251
18	0xbf996626	-1.1984298
19	0xbf827998	-1.0193357
20	0xbfe90d1d	-1.8207127
21	0xbfbb322e	-1.4624689
22	0xbfb335be	-1.4000776
23	0xbf5d774f	-0.86510175

layer1.lstm.weight_ih_l4 f4 [24, 6]
0	0xbfa6d517	-1.303378
1	0xbfa0c906	-1.2561347
2	0xbed39fc8	-0.4133284
3	0x3ee9d4c5	0.45670143
4	0x3f9f0f7a	1.2426598
5	0xbf5d2dac	-0.86397815
6	0x3f7c423e	0.9853858
7	0x3faa6b0b	1.3313917
8	0xc05abb01	-3.4176638
9	0x4050cf21	3.2626421
10	0xc038bca0	-2.8865128
11	0xc092ce86	-4.5877104
12	0xbf0752fd	-0.52861005
13	0x3ee7e3a7	0.45290872
14	0x3f9ec5c8	1.2404108
15	0xbf1ea35e	-0.6196803
16	0xbdd5b39f	-0.10434651
17	0x3e7fc02a	0.24975649
18	0x40ba4e4d	5.822058
19	0x40399b10	2.9000893
20	0xc08feacf	-4.497413
21	0x404c33a4	3.190652
22	0xc0c65835	-6.1982675
23	0x3ef6edc9	0.4822829
24	0x400df9b2	2.2183652
25	0xbe765d4e	-0.2405903
26	0x402aa13c	2.666091
27	0xbf9bcf34	-1.2172608
28	0x40107e41	2.257706
29	0x400e5ad1	2.224293
30	0x3fd8f8b1	1.6950895
31	0x403b634d	2.9279358
32	0x40025430	2.0363884
33	0xc08db3f4	-4.428217
34	0xbf467b16	-0.77531564
35	0x408ebb2d	4.4603486
36	0xbf54e118	-0.83155966
37	0xbddc9f94	-0.107726246
38	0x4044cf87	3.0751665
39	0xbeb6abe8	-0.3567803
40	0xc0070965	-2.1099484
41	0x3e9e81c4	0.30958378
42	0xc006223e	-2.09584
43	0x3e9d552c	0.30729043
44	0xc0475add	-3.1149209
45	0x409835d1	4.7565694
46	0xc03a150e	-2.907535
47	0xc09ba2d8	-4.8636284
48	0xbf949a6f	-1.1609629
49	0x3f14d019	0.5813003
50	0x400195b0	2.0247612
51	0xbfe7d66c	-1.8112311
52	0x3fd91cf2	1.6961958
53	0x3f54b15e	0.8308314
54	0x4082546c	4.0728054
55	0x408afffb	4.3437476
56	0xc0579196	-3.3682609
57	0x401bc56e	2.4339252
58	0xc0990310	-4.781624
59	0xc040be88	-3.011629
60	0xbf921eda	-1.1415665
61	0xbfdb28c4	-1.7121816
62	0x402ba6ae	2.6820483
63	0xbfbe9db1	-1.4891874
64	0x4039bed8	2.9022732
65	0xbf0ed3c0	-0.55791855
66	0xbe8b2a8d	-0.271809
67	0x3fe6a191	1.8018056
68	0x3e5ebe76	0.21752343
69	0xbed527fb	-0.41632065
70	0xbef9a9ff	-0.4876251
71	0x3f1f0352	0.6211444
72	0x3f821ba1	1.0164682
73	0x3fc88b5f	1.5667533
74	0x3fc088f4	1.5041795
75	0xbfb7bce3	-1.4354519
76	0x3e4a60f6	0.1976355
77	0x3feac7e1	1.8342248
78	0x3ee4cfc2	0.44689757
79	0xbe3a195f	-0.18173741
80	0xc05f35ff	-3.4876707
81	0x40896bb6	4.2943983
82	0xc0011df9	-2.0174544
83	0xc02a0b24	-2.65693
84	0x3e84c300	0.25930023
85	0x3cc600d7	0.024170322
86	0x3f0be172	0.5464088
87	0xbf70a583	-0.9400255
88	0x3ef56fff	0.4793701
89	0x3f51641d	0.81793386
90	0x401965f5	2.396848
91	0x3fc6fbe3	1.554562
92	0xc0518eb1	-3.2743342
93	0x3fecc611	1.8497945
94	0xc06dbb03	-3.7145393
95	0x3d1d1d3b	0.038357954
96	0xbe846da3	-0.25864896
97	0x40305beb	2.7556102
98	0x40264e1e	2.598518
99	0xc071bf8b	-3.7773159
100	0xc0384aed	-2.879573
101	0x40d51a7d	6.6594834
102	0xbfba32e4	-1.454678
103	0xc016b9d9	-2.3550932
104	0xbe94e3ed	-0.29080144
105	0x3f7863f7	0.97027534
106	0x400c1373	2.188687
107	0xbfcfd463	-1.623669
108	0x3e09fcd8	0.13475358
109	0xbf4de9fb	-0.8043515
110	0x3e455b9f	0.19273232
111	0xbe9b407a	-0.3032263
112	0x3f809564	1.004559
113	0x3dcfa90c	0.10139665
114	0x3f6d684e	0.9273728
115	0x3ed16a53	0.4090143
116	0xbefe1927	-0.49628565
117	0x3f049d07	0.51802105
118	0xbf160965	-0.58608085
119	0xbf2b9881	-0.6702958
120	0xbf9f375b	-1.2438768
121	0x3ed3212a	0.4123624
122	0x3fb0f2c1	1.3824083
123	0xbf32b0a2	-0.6980077
124	0x3f18b4e0	0.59650993
125	0x3dae1285	0.08499626
126	0x3e8eae9e	0.27867597
127	0x3feee471	1.8663465
128	0x3f31fefc	0.695297
129	0xbf262b6e	-0.6491002
130	0x3ea42516	0.32059544
131	0x3fae3a63	1.3611568
132	0x3fcab1c4	1.58355
133	0xbea51c74	-0.3224827
134	0x40207d88	2.5076618
135	0xbfb73af0	-1.4314861
136	0x40116811	2.2719767
137	0x4032a095	2.7910511
138	0xbfa74488	-1.3067789
139	0x3fc3e325	1.5303694
140	0x3f7a3617	0.97738785
141	0xbfa19ae1	-1.262539
142	0x3fb89daf	1.4423121
143	0x3f120932	0.5704528

layer1.lstm.weight_hh_l4 f4 [24, 6]
0	0x3fb74f95	1.4321162
1	0xbf9b1e6a	-1.2118657
2	0x3fdc1d94	1.7196527
3	0xbffb4303	-1.9629825
4	0xbe38df43	-0.18053918
5	0x3febf2dc	1.843349
6	0xbeb4f09b	-0.35339817
7	0x40447318	3.0695248
8	0xbec3120d	-0.3809971
9	0x3ff293ba	1.8951333
10	0x4007daa8	2.1227207
11	0x3f39eb84	0.72624993
12	0x4049ea98	3.1549435
13	0xc0672e97	-3.6122186
14	0x40011004	2.0166025
15	0xc05354e8	-3.3020573
16	0x3e96eb4a	0.29476386
17	0x401ad048	2.4189625
18	0x3fa08bc0	1.2542648
19	0x3f526707	0.8218846
20	0xbe8d9f37	-0.27660534
21	0x3f05c047	0.52246517
22	0x3fa894d1	1.3170415
23	0x3f8f62dd	1.1202046
24	0x3f94b34d	1.1617218
25	0x3fc97654	1.5739236
26	0x4021113f	2.5166776
27	0xbfbacfe7	-1.4594697
28	0xbfa32b3f	-1.2747573
29	0x402f0153	2.7344558
30	0x3fd1d5ab	1.6393331
31	0x3f03ad1c	0.5143602
32	0x3e487d10	0.19578958
33	0x3ff0af28	1.8803453
34	0xbeea5fdd	-0.45776263
35	0x3c8ff30f	0.017571954
36	0x403cdb7c	2.9508963
37	0xc01ec445	-2.4807293
38	0x403c21d9	2.939566
39	0xc02a211c	-2.6582708
40	0x3f2e5f6b	0.68114346
41	0x3fa1ebb4	1.2650056
42	0xbf15ab7a	-0.5846478
43	0x3d92a2af	0.07159936
44	0x3f9fca06	1.2483528
45	0xbf634437	-0.8877596
46	0x3e6f46b1	0.2336681
47	0x4048e1c2	3.1387792
48	0x407b21e6	3.923944
49	0xc0a211f8	-5.0646935
50	0x4001f737	2.0307138
51	0xc03a8cd5	-2.9148457
52	0x3f36d6b4	0.7142136
53	0x3fb3d80d	1.4050308
54	0x3ffea704	1.9894719
55	0x3fa6a69f	1.3019599
56	0x3ebf8ba7	0.37411234
57	0x3fb6900f	1.4262713
58	0x4005c650	2.090229
59	0x3ded1b69	0.11577494
60	0x3fb7fffc	1.4374995
61	0xc01483c9	-2.3205435
62	0x401a6eb6	2.4130073
63	0xbf2bf903	-0.67176837
64	0x3cbaad86	0.02278782
65	0x3f98730a	1.1910107
66	0x3eadc7cb	0.33941492
67	0xbebc8a7a	-0.368244
68	0x3fc18684	1.5119176
69	0xbf06e88e	-0.526986
70	0xbf805e9c	-1.0028872
71	0x3fa56040	1.2919998
72	0xbf88abf5	-1.0677477
73	0x3fe2efdf	1.7729453
74	0xbe9b0007	-0.30273458
75	0x3fa56b37	1.2923344
76	0xbf41e7b3	-0.7574417
77	0xbef8c9b3	-0.48591384
78	0xbfac1c2f	-1.3446101
79	0xbf34efe8	-0.7067857
80	0xbf26acae	-0.6510724
81	0xbf2f903c	-0.6857946
82	0x3f9320e4	1.1494412
83	0x3f6a1baf	0.9144849
84	0xbf514fac	-0.81762195
85	0x400b55c0	2.1771088
86	0xbeec4675	-0.46147504
87	0x3fca73fc	1.5816646
88	0x3dc7d81e	0.09758018
89	0xbf9dccd6	-1.2328136
90	0xbf0bec94	-0.54657865
91	0x3fd43929	1.6579944
92	0xbfa8fd49	-1.3202296
93	0x3f2cf24f	0.67557234
94	0x3f8a720f	1.0816058
95	0xbfcb4005	-1.5878912
96	0xbe0175bb	-0.12642567
97	0xbfc4a89b	-1.5363954
98	0x3e1f407a	0.1555194
99	0x3f6102c2	0.87894833
100	0xbf98aaf4	-1.1927171
101	0xbeadb562	-0.33927447
102	0x3e7ffed3	0.24999551
103	0xbfe04ebe	-1.752403
104	0x400217e1	2.0327075
105	0xbf9e699c	-1.237598
106	0xbf2cb57d	-0.6746443
107	0x3f3e87bb	0.7442586
108	0x400356d4	2.0521746
109	0xc00ef537	-2.2337167
110	0x401c869e	2.4457164
111	0xc01093e1	-2.2590258
112	0x3f53c7fc	0.82727027
113	0x4004f98a	2.0777307
114	0x3f335343	0.7004892
115	0xbf877bca	-1.0584652
116	0x3f63c61d	0.8897417
117	0x3fc336a5	1.5251051
118	0x3ff04ba6	1.8773086
119	0xbf494bf2	-0.7863151
120	0x405dec5b	3.467551
121	0xc06bf389	-3.6867392
122	0x40239bdb	2.5563877
123	0xc0525f7b	-3.2870777
124	0x3e913713	0.2836233
125	0x400211ad	2.0323288
126	0x3f8e3fcf	1.1113223
127	0xbf67864f	-0.90439314
128	0x3f235621	0.638033
129	0xc011c58c	-2.2776823
130	0x3e318e8b	0.17339532
131	0x3fc0be0b	1.5057997
132	0x3fb8ef64	1.4448056
133	0x3f45dd2b	0.772906
134	0x4023ecd4	2.5613298
135	0xbfc53826	-1.540776
136	0xbfc86f71	-1.5659009
137	0x403f841e	2.9924388
138	0x3f50d72d	0.8157833
139	0x3f8a4196	1.0801265
140	0x3f815205	1.0103155
141	0x3f1b4d8e	0.60665214
142	0xbf6f82e7	-0.93559116
143	0x3f8ba2fa	1.0909111

layer1.lstm.bias_ih_l4 f4 [24]
0	0xbf0abf71	-0.54198366
1	0xbf3c7909	-0.73622185
2	0xbeffa23c	-0.49928463
3	0xbe607cc9	-0.21922602
4	0xbf9f35f7	-1.2438344
5	0xbe38ace2	-0.180347
6	0xbfaacda5	-1.3344008
7	0xbf7f8b13	-0.99821585
8	0xbf9c5f06	-1.2216499
9	0xbef2d561	-0.4742842
10	0xc014458d	-2.316745
11	0xbf8eb2fb	-1.114837
12	0xbf275236	-0.6535982
13	0x3f6b4e76	0.91916597
14	0xbfc406de	-1.5314596
15	0x3fc33bbd	1.5252606
16	0x3d9ba0e0	0.07599044
17	0xbf6e75ed	-0.9314869
18	0xbe6f66f4	-0.23379117
19	0xbf3ac6c2	-0.7295953
20	0xbeac49f6	-0.33650178
21	0xbf508bb1	-0.8146315
22	0xbfc4cab4	-1.537436
23	0xbf9cac85	-1.2240149

layer1.lstm.bias_hh_l4 f4 [24]
0	0xbee242a7	-0.44191477
1	0xbe6c5f53	-0.23083238
2	0xbe4c633a	-0.19959727
3	0x3e13c608	0.14431012
4	0xbf477af2	-0.77921975
5	0xbef06c89	-0.46957806
6	0xbf93668f	-1.1515673
7	0xbedc23b7	-0.42995998
8	0xbfc9b97c	-1.575973
9	0xbec29d75	-0.38010755
10	0xc00d66f5	-2.209409
11	0xbfa12ef6	-1.2592456
12	0xbf912fe1	-1.1342736
13	0x3f37479a	0.7159363
14	0xbfaaca5d	-1.3343006
15	0x3fdb1732	1.7116454
16	0x3f040504	0.51570153
17	0xbf251f49	-0.6450086
18	0xbf1edb12	-0.62053025
19	0xbf113870	-0.5672674
20	0xbf6af75c	-0.9178369
21	0xbf9470af	-1.1596888
22	0xbfe66716	-1.8000209
23	0xbfaa0a30	-1.3284359

layer2.linear.weight f4 [150, 36]
0	0x3f512950	0.8170366
1	0xbeb89edd	-0.36058703
2	0x3f5b00ec	0.8554828
3	0xbf6568f0	-0.89613247
4	0xbf376f98	-0.71654654
5	0x3e468c56	0.19389471
6	0x3f02034d	0.50786287
7	0xbf3c7501	-0.73616034
8	0x3f3d2da8	0.7389779
9	0xbe7cba56	-0.24680457
10	0xbeec4301	-0.4614487
11	0x3eaa475e	0.33257574
12	0x3f21df05	0.63230926
13	0xbf1190a2	-0.5686132
14	0x3f051fd5	0.52001697
15	0xbe4bd48e	-0.19905302
16	0xbb0554c5	-0.0020344716
17	0x3ebb93d0	0.3663621
18	0x3f2abe1b	0.6669633
19	0xbee8dee4	-0.45482552
20	0x3ed96eda	0.42467386
21	0xbe3c2b9a	-0.18376008
22	0xbe53caa0	-0.20682764
23	0x3e6f3af1	0.23362328
24	0x3f4a5931	0.79042345
25	0xbead7669	-0.33879402
26	0x3ee3a482	0.44461447
27	0xbed00193	-0.406262
28	0xbe95be6f	-0.29246852
29	0x3eaf2544	0.3420812
30	0x3f8e4bea	1.1116917
31	0xbe9d9716	-0.30779332
32	0x3ef6fe5b	0.48240933
33	0xbef99b63	-0.48751363
34	0x3e5e26ca	0.21694484
35	0x3ea82088	0.3283732
36	0xbd18ac6f	-0.03727382
37	0xbec07664	-0.37590325
38	0x3f231103	0.6369783
39	0xbe0ce65f	-0.13759755
40	0xbf6e5490	-0.9309778
41	0xbfaed877	-1.365981
42	0xbc38b30e	-0.011273159
43	0xbde7ceec	-0.11318764
44	0x3f6d0dde	0.92599285
45	0xbf0c79e8	-0.54873514
46	0xbd6d03b2	-0.057864852
47	0xbe52ed50	-0.2059834
48	0xbecfe0ae	-0.40601104
49	0x3e083966	0.13303146
50	0x3ef88e84	0.4854623
51	0xbefcdff6	-0.4938962
52	0xbc88e6fa	-0.0167117
53	0xbf0505df	-0.51962084
54	0xbe9a2f65	-0.30114284
55	0x3e84eccf	0.2596192
56	0x3ea55d7b	0.32297882
57	0xbe523667	-0.20528565
58	0xbe6ca5cd	-0.23110123
59	0x3d22214f	0.039582547
60	0xbe92600c	-0.28588903
61	0xbd78f2a5	-0.06077828
62	0x3eeb8484	0.4599954
63	0xbe842c0b	-0.25814852
64	0xbe71732e	-0.23579094
65	0xbe96e2ed	-0.29470006
66	0xbea2b855	-0.3178126
67	0xbe0a8d56	-0.13530478
68	0x3f52c74c	0.8233535
69	0xbeb3bdf6	-0.35105866
70	0xbe167958	-0.14694726
71	0xbf164e47	-0.5871319
72	0x3f481773	0.7816078
73	0xbdc16f0c	-0.09445009
74	0x3f285cba	0.6576649
75	0xbe2837c4	-0.16427523
76	0x3e001ecb	0.12511747
77	0x3f2ec5b4	0.6827042
78	0x3f74706d	0.9548405
79	0xbe3c7dfd	-0.18407436
80	0x3f4018ff	0.7503814
81	0xbe9cc367	-0.3061783
82	0x3dfc4097	0.12317007
83	0x3f040f72	0.5158607
84	0x3f5ad19e	0.854761
85	0xbe5d246e	-0.21595928
86	0x3f2db071	0.67847353
87	0xbecbbb86	-0.39791507
88	0xbea1448b	-0.31497607
89	0x3f820f57	1.0160931
90	0x3f59c505	0.8506625
91	0xbebf1ef9	-0.37328318
92	0x3f222fc7	0.6335415
93	0xbf129eec	-0.57273746
94	0xbc72856c	-0.014802318
95	0x3f67d954	0.9056599
96	0x3f6f6b67	0.9352326
97	0xbf0bbc20	-0.5458393
98	0x3f3e335b	0.7429711
99	0xbf2fe52b	-0.6870906
100	0x3dd34160	0.10315204
101	0x3f255408	0.64581347
102	0x3fb06ee6	1.3783844
103	0xbf94dff9	-1.1630851
104	0x3f071b0d	0.5277565
105	0xbf814724	-1.0099835
106	0x3e8f7bbb	0.28024086
107	0x3e6227f3	0.22085552
108	0x3e3f46ea	0.18679395
109	0x3d100597	0.03516158
110	0x3e47f659	0.19527568
111	0x3d8a2523	0.067453645
112	0xbcf9ff50	-0.03051725
113	0xbbc319aa	-0.005953987
114	0x3e2a4b45	0.16630276
115	0xbdc6464d	-0.096813776
116	0x3e8efca8	0.27927136
117	0xbd7e688d	-0.062111426
118	0xbda58dea	-0.080837086
119	0xbdaba597	-0.08381193
120	0xbd069e2a	-0.03286568
121	0x3da03e9f	0.07824444
122	0x3d363bbf	0.044490572
123	0xbe4333b1	-0.19062687
124	0x3d4cd2d0	0.050005734
125	0xbdef4d38	-0.1168465
126	0x3d0e3c7b	0.034725647
127	0x3cd45fec	0.025924645
128	0xbbf45833	-0.007456803
129	0xbc40571d	-0.011739519
130	0x3e421cbf	0.18956278
131	0xbb9291c2	-0.004472942
132	0x3e487838	0.1957711
133	0xbdc9d8eb	-0.09855827
134	0x3e7a6642	0.24453071
135	0x3db61196	0.08890073
136	0x3ddc6d38	0.10763019
137	0x3dbf9732	0.0935501
138	0xbd333ba9	-0.04375807
139	0xbcc09e2c	-0.023512922
140	0x3e1613a1	0.14655925
141	0xbe562653	-0.20913057
142	0x3e18b687	0.14913379
143	0xbd6f101a	-0.058364965
144	0x3edb4343	0.42824754
145	0xbe760229	-0.24024262
146	0x3f0ebe92	0.5575954
147	0x3d94f0d1	0.072724946
148	0x3e2a8ce8	0.16655314
149	0xbe7b4f63	-0.24542002
150	0x3efd43c1	0.49465755
151	0xbe8b5d8f	-0.27219817
152	0x3ef58e84	0.47960293
153	0xbcf5ab30	-0.029988855
154	0x3e564f34	0.20928651
155	0xbdd2795b	-0.10277053
156	0x3f011be3	0.50433177
157	0xbe212fa1	-0.15740825
158	0x3f24a301	0.64311224
159	0xbd3c4bc7	-0.045970704
160	0x3e44ce53	0.19219331
161	0xbe3b2de8	-0.1827923
162	0x3e62f80a	0.22164932
163	0xbe987095	-0.29773393
164	0x3f0fe395	0.5620664
165	0x3d3eea67	0.046610262
166	0x3daacc2c	0.08339724
167	0xbe100814	-0.14065582
168	0x3ec392ea	0.38198024
169	0xbe966031	-0.29370263
170	0x3f09e5e1	0.5386639
171	0x3e424527	0.18971692
172	0x3e0fdd5b	0.14049284
173	0x3c74ff11	0.014953391
174	0x3f17c788	0.59288836
175	0xbe94b9ba	-0.29047948
176	0x3f05bc4d	0.5224045
177	0x3ca9d029	0.020729141
178	0x3e264929	0.16238846
179	0xbd90d2ee	-0.07071482
180	0x3e5cb569	0.21553577
181	0xbe4be70b	-0.19912355
182	0x3eaec6f5	0.34136167
183	0x3c4f846d	0.01266585
184	0xbdb543a3	-0.08850791
185	0xbdf15eb9	-0.11785645
186	0x3ea4c39c	0.32180488
187	0xbe850f53	-0.25988254
188	0x3e466001	0.1937256
189	0xbdd205bc	-0.10255
190	0xbd22b009	-0.03971866
191	0x3d11ae14	0.035566404
192	0x3ec73189	0.3890498
193	0xbe65f907	-0.22458278
194	0x3ea754fd	0.32682028
195	0xbd787701	-0.060660366
196	0xbd1f8fef	-0.038955625
197	0xbcf5a94f	-0.02998796
198	0x3dec588b	0.11540326
199	0xbdb609d1	-0.08888591
200	0x3e7f34e3	0.24922518
201	0xbcca46e8	-0.024692014
202	0xbdaefd11	-0.08544362
203	0xbca9c7a6	-0.020725083
204	0x3eb25b74	0.34835398
205	0xbe4cefa8	-0.20013297
206	0x3e9ad817	0.30242988
207	0x3e1c64dd	0.15272851
208	0x3dc840fd	0.097780205
209	0xbda7d86e	-0.081955776
210	0x3e4e5fc7	0.20153724
211	0xbe2c22e2	-0.16810182
212	0x3e8f7a2e	0.28022903
213	0x3beaf9fe	0.0071709147
214	0x3b6285ff	0.0034564731
215	0x3e046b34	0.1293152
216	0xbe973190	-0.2953
217	0xbfa5f3d4	-1.2965035
218	0x3f6550e4	0.89576554
219	0xbe90f7a6	-0.2831394
220	0xbfb257a0	-1.3932991
221	0xbf024c4f	-0.5089769
222	0xbe059056	-0.13043341
223	0xbfac5d8b	-1.3466047
224	0x3f7b175c	0.9808252
225	0xbef1b9ac	-0.4721197
226	0xbf975b17	-1.1824673
227	0xbe746861	-0.23867942
228	0xbe3b22dc	-0.18275017
229	0xbef301fb	-0.47462448
230	0x3ecfd74e	0.40593952
231	0xbe03b616	-0.12862429
232	0x3e1e493c	0.15457624
233	0x3f42eadb	0.7613961
234	0x3d839552	0.06424965
235	0xbe78f6f6	-0.24312958
236	0x3e48b233	0.19599228
237	0xbd3ee4c8	-0.0466049
238	0x3f07ee3b	0.53097886
239	0x3f509c2a	0.8148829
240	0x3e6fbf64	0.23412853
241	0xbdf6bc9b	-0.120476924
242	0xbdbad825	-0.091232575
243	0x3dba722a	0.09103806
244	0x3ed616bb	0.41814217
245	0x3f360618	0.7110305
246	0x3e9bad10	0.30405474
247	0xbe4ff462	-0.20308068
248	0xbe13b378	-0.1442393
249	0x3e956c55	0.29184213
250	0x3f0103b3	0.5039627
251	0x3f55e7dd	0.8355692
252	0x3f0ffed1	0.56248194
253	0x3e1e3846	0.15451154
254	0x3ef2690b	0.47345766
255	0x3e0ad639	0.13558282

layer2.linear.bias f4 [150]
0	0x3fc1acd3	1.5130867
1	0xbf1fefe1	-0.624754
2	0x3fc897b6	1.5671299
3	0xbe5ab91b	-0.21359675
4	0x3f0b8a95	0.54508334
5	0x3ea103cc	0.3144821
6	0x3efe5ed2	0.49681717
7	0x3f09b618	0.5379348
8	0xbe3968c0	-0.18106365
9	0x3f94cb12	1.1624472
10	0x3f927504	1.144196
11	0x3e6bba0f	0.23020194
12	0x3f03b920	0.51454353
13	0x3f192a18	0.59829855
14	0x3f05fc62	0.5233823
15	0x3f093ac6	0.53605306
16	0xbf4b33cb	-0.79375905
17	0x3efb08a4	0.4903003
18	0x3f1d4ddb	0.61446923
19	0x3ae22691	0.0017253925
20	0x3e9d36eb	0.30705962
21	0x40089511	2.1340983
22	0xbf381a52	-0.7191516
23	0xbeea7c33	-0.4579788
24	0x3eb34c38	0.35019088
25	0x3f4ae0ad	0.7924908
26	0x3f08ac40	0.5338783
27	0x3f28641e	0.65777767
28	0x3f1bf071	0.6091376
29	0x3f29a0cc	0.6626098
30	0x3ecf3be7	0.4047539
31	0xbd28a893	-0.04117639
32	0xbe003579	-0.12520398
33	0x3e9a124f	0.30092093
34	0x3eb71212	0.35755974
35	0x3f98b056	1.1928813
36	0xbe32097d	-0.17386432
37	0xbdd8437d	-0.10559747
38	0xbd05a2f8	-0.032626122
39	0x3eedd9df	0.46455285
40	0xbe67f3e1	-0.22651626
41	0xbd3ce7b5	-0.04611941
42	0xbeb296fc	-0.34880817
43	0x3f0d4672	0.55185616
44	0x3f00d87e	0.5033034
45	0x3eedadc0	0.46421623
46	0x3edb72ad	0.42860928
47	0x3efd8cb7	0.4952142
48	0xbdbbf8d8	-0.091783226
49	0x3eaa3466	0.33243102
50	0x3f215791	0.6302424
51	0x3e4ce1a5	0.20007952
52	0xbf406ad0	-0.7516298
53	0xc01547eb	-2.3325145
54	0x3f881117	1.0630215
55	0x3ea0dbac	0.31417596
56	0x3f26c2b2	0.6514083
57	0x3f3ae455	0.7300466
58	0x3f24c50f	0.6436319
59	0x3f355acf	0.7084169
60	0x3f7f4dc4	0.99728036
61	0x3f76c03d	0.9638708
62	0x3ef94baf	0.48690554
63	0xbe4aac5b	-0.19792311
64	0x3faaa720	1.3332253
65	0x3f229510	0.635087
66	0xbe6eb8f3	-0.2331274
67	0x3f1a8cbc	0.60370994
68	0xbff8343c	-1.9390941
69	0x3c8d3564	0.017237373
70	0x3e8bc037	0.27295086
71	0x3f24e244	0.64407754
72	0x3f2e879e	0.68175685
73	0x3ef0f763	0.4706374
74	0x3f87efe8	1.0620089
75	0x3dbcef53	0.09225335
76	0xbf38b163	-0.7214567
77	0xbf3a0cd5	-0.7267583
78	0x3ebc2731	0.3674865
79	0x3e1311ca	0.14362255
80	0x3f10e327	0.56596607
81	0x3ac4aad7	0.0015004528
82	0x3faa5da7	1.330983
83	0xbd028192	-0.03186185
84	0x3f2f2403	0.68414325
85	0x3eb7e683	0.35918054
86	0x3f3ec076	0.7451242
87	0x3f3850b7	0.7199816
88	0x3edcb329	0.43105438
89	0xbe3a2fdc	-0.1818232
90	0xc01383d8	-2.304922
91	0x3f0cee4a	0.550511
92	0x3fb400c3	1.4062732
93	0xbe28ed0c	-0.16496676
94	0x3fd1e9aa	1.6399434
95	0x3dcb9123	0.09939792
96	0x3f125603	0.57162493
97	0xbe17d491	-0.14827181
98	0x3f950083	1.1640781
99	0xbc5756fc	-0.013143297
100	0xbe548680	-0.20754433
101	0xbe6122bf	-0.21985911
102	0x3db3e9d1	0.08784831
103	0x3fcd58d5	1.6042734
104	0x4022a1f7	2.5411355
105	0x3f82c414	1.0216088
106	0x3ebfe84d	0.3748192
107	0xbe13790c	-0.14401644
108	0x3e3b2cae	0.18278763
109	0xbf4eb18a	-0.80739653
110	0x3e94ef79	0.29088953
111	0x3f48a090	0.7837
112	0xbf8845a9	-1.0646259
113	0x3ea65f33	0.32494506
114	0xbd39369b	-0.04521809
115	0xbf5484cf	-0.8301515
116	0x3edd4491	0.43216375
117	0x3e934b34	0.28768313
118	0x3e9d664b	0.30742106
119	0xbe2d1f8a	-0.16906562
120	0x3eff361e	0.49845976
121	0xbd69b720	-0.057059407
122	0xc035b377	-2.8390787
123	0x3f2f89d6	0.68569696
124	0x405532e9	3.3312323
125	0x3f363e9e	0.71189296
126	0x3eac5929	0.33661774
127	0xbe1252a8	-0.14289343
128	0xbe69abc2	-0.22819427
129	0x3edc00bc	0.4296931
130	0xc03852c8	-2.8800526
131	0xbee8d142	-0.4547215
132	0xbe01d259	-0.12677898
133	0xbd8ed813	-0.06974807
134	0x3fafa642	1.3722613
135	0x3ec64b6f	0.38729426
136	0x3e47a381	0.19495966
137	0x3edc0f5d	0.4298047
138	0xbecb6b0f	-0.39730117
139	0x3eab55bd	0.3346385
140	0x3e33c29d	0.17554708
141	0xbd9f4320	-0.07776475
142	0x40016f46	2.0224166
143	0xbe454b16	-0.19266924
144	0xbeee51ec	-0.46546876
145	0xbe42be23	-0.19017844
146	0x3f53c591	0.8272334
147	0xbf2e789b	-0.6815278
148	0xbfa607d7	-1.2971143
149	0xbf915f8f	-1.1357287
